SentinelAI/models/network_model.pth (torch, 67225 bytes, 13 tensors)

model.0.weight f4 [128, 42]
0.0138608515 -0.021150922 -0.03908303 0.0711767 -0.12113964 0.014431299 -0.2257558 -0.124278165
-0.012651733 0.06362806 0.063782565 0.03948803 -0.08021717 0.082765475 -0.029228881 -0.21619122
0.02377879 -0.06928532 -0.03531069 -0.019432047 -0.008805397 -0.0024565123 -0.07965157 0.036155537
-0.11150733 0.066723086 -0.16700347 0.21984473 -0.04874321 -0.063857764 -0.3373493 -0.012496213
-0.12825893 -0.22674693 0.36111987 0.36497912 0.077530414 -0.010357316 0.03820215 -0.086110465
-0.15929951 0.041241422 0.04054092 0.00701209 0.11351614 -0.03874658 0.107150845 -0.09531539
-0.019686026 -0.057633642 0.05719452 -0.25114712 -0.13892692 0.033281602 -0.056891296 -0.012230677
0.04754799 0.15488431 -0.006108667 0.07876908 -0.10678578 0.010628838 0.014523448 -0.035629272
-0.101264924 0.14307833 -0.017647427 -0.08717526 -0.15192929 0.007110817 0.055724118 0.03883003
0.11868435 -0.462252 0.0472784 -0.088414535 0.071391925 -0.09708841 -0.06548387 0.06791339
0.003291856 -0.10046675 0.2069878 -0.13988996 -0.10395362 0.28188518 0.31386414 0.006489501
-0.27419433 -0.034364074 0.15081729 0.14245813 0.05258074 0.32082957 -0.048025552 -0.009833621
-0.0025103816 0.007332065 0.04790834 -0.14301333 0.010261196 0.06676884 0.07360254 -0.18763696
-0.018796785 0.025526827 0.08201118 0.062110774 0.094740085 -0.073635824 -0.16980483 -0.10904771
-0.09390737 0.08392971 0.01634693 -0.05316644 0.11259756 -0.07068659 0.14713381 0.06709076
-0.055070594 -0.005448558 0.037518773 0.13908286 -0.0057387208 -0.00664232 -0.035611268 0.13489506
-0.06223719 -0.031439222 -0.03284246 0.11177627 0.051186085 0.120428875 -0.12841387 0.25816467
0.061220076 0.07339372 0.046580765 0.06794487 0.07727319 -0.13814981 0.1055165 -0.060532887
-0.09083983 -0.08766786 -0.015042037 -0.08092871 -0.10661639 0.12190413 -0.13061401 -0.025913792
0.15623744 -0.2798969 -0.01774443 0.026354782 -0.19626924 -0.09915953 -0.10106085 0.16232476
-0.14768508 0.12741654 0.058222614 -0.026516104 -0.13308743 -0.1687255 -0.0123207485 -0.034526587
0.058287513 -0.08177561 -0.07074755 0.09541448 -0.0841621 -0.11453711 0.05800382 0.032487586
-0.030170532 -0.11556418 -0.105321415 0.038467668 0.1748001 0.012023626 -0.028799156 0.21258314
-0.053018227 0.116275914 -0.013809613 0.2716989 -0.0154354125 0.03174751 -0.079819694 -0.08380963
-0.042686418 -0.028485386 -0.13913713 0.05887845 -0.034763005 0.12402239 -0.019671295 0.16989392
-0.13459574 -0.24784817 -0.2011412 0.08381591 0.13466755 -0.14577967 0.0662186 0.22567636
0.0782405 0.0890339 0.041557413 -0.13819726 0.0073176427 -0.0446493 -0.06899138 -0.0799188
0.097420104 0.086247735 -0.10460974 0.10430096 0.2764867 0.14665608 -0.014442837 -0.12296978
0.02144737 -0.06742296 -0.0122807305 0.11343379 -0.011045699 -0.18820886 -0.010216837 -0.008085539
0.13268071 -0.09606401 0.008795468 -0.10581883 0.048354927 -0.02183897 -0.11612295 0.046729177
-0.27977347 -0.025584036 -0.3553851 0.107141495 0.019161489 -0.31148413 0.0048011877 0.032598283
0.04122579 -0.16092177 -0.10296179 0.056693878 -0.07368585 -0.022134058 -0.060310006 -0.015953466
00000000: a018 633c b344 adbc 8715 20bd 17c5 913d
00000010: 0f18 f8bd 4171 6c3c 872c 67be 8d85 febd
00000020: 3749 4fbc 6e4f 823d 6fa0 823d 33be 213d
00000030: e648 a4bd f280 a93d 6871 efbc 3b61 5dbe
00000040: bdcb c23c 76e5 8dbd f1a1 10bd f52f 9fbc
00000050: 8344 10bc 70fd 20bb 5d20 a3bd d417 143d
00000060: f45d e4bd 1da6 883d f502 2bbe fa1e 613e
00000070: f6a6 47bd dcc7 82bd 0cb9 acbe ebbc 4cbc
00000080: 4f56 03be 5930 68be b4e4 b83e 8bde ba3e
00000090: 44c8 9e3d bbb1 29bc dc79 1c3d af5a b0bd
000000a0: 691f 23be c4ec 283d 3c0e 263d adc5 e53b
000000b0: 267b e83d bcb4 1ebd e771 db3d b734 c3bd
000000c0: 9744 a1bc 4111 6cbd cd44 6a3d 5b96 80be
000000d0: dc42 0ebe 4a52 083d d906 69bd 2d63 48bc
000000e0: aec1 423d fe99 1e3e 362b c8bb af51 a13d
000000f0: 81b2 dabd 9424 2e3c c2f3 6d3c 00f0 11bd
00000100: fc63 cfbd 2083 123e 5691 90bc f188 b2bd
00000110: 5a93 1bbe db01 e93b f93e 643d 3d0c 1f3d
00000120: c810 f33d 4bac ecbe ffa6 413d ae12 b5bd
00000130: ee35 923d 4ad6 c6bd 681c 86bd 2d16 8b3d
00000140: 2ebc 573b 83c1 cdbd 9cf4 533e 503f 0fbe
00000150: a3e5 d4bd 4153 903e cdb2 a03e e1a5 d43b
00000160: 3363 8cbe 58c1 0cbd d96f 1a3e 8be0 113e
00000170: e75e 573d c643 a43e 71b6 44bd 321d 21bc
00000180: 3785 24bb d241 f03b 893b 443d 1672 12be
00000190: 931e 283c 1abe 883d eebc 963d e723 40be
000001a0: b7fb 99bc a31d d13c 7af5 a73d de67 7e3d
000001b0: 1707 c23d 61ce 96bd 51e1 2dbe 6854 dfbd
000001c0: 8252 c0bd 57e3 ab3d ffe9 853c 0ec5 59bd
000001d0: 8d99 e63d 22c4 90bd 3faa 163e e166 893d
000001e0: b491 61bd d189 b2bb 49ad 193d bd6b 0e3e
000001f0: e10b bcbb d2a7 d9bb 1fdd 11bd ee21 0a3e
00000200: 6cec 7ebd 6ac6 00bd d185 06bd f5ea e43d
00000210: 80a8 513d 6aa3 f63d ed7e 03be 292e 843e
00000220: e7c1 7a3d 724f 963d 79cb 3e3d ae26 8b3d
00000230: 6841 9e3d 2577 0dbe 0919 d83d 55f1 77bd
00000240: 3c0a babd 358b b3bd e072 76bc f4bd a5bd
00000250: b259 dabd dfa8 f93d aebf 05be 2949 d4bc
00000260: b5fc 1f3e a54e 8fbe c45c 91bc fce5 d73c
00000270: cefa 48be 2714 cbbd fef8 cebd 7638 263e
00000280: c23a 17be 7b79 023e d67a 6e3d 4d38 d9bc
00000290: 1248 08be 61c6 2cbe f7dc 49bc c06b 0dbd
000002a0: e3be 6e3d f979 a7bd 17e4 90bd ab68 c33d
000002b0: 2e5d acbd 6f92 eabd 6a95 6d3d b411 053d
000002c0: 3128 f7bc eaac ecbd c1b2 d7bd 4690 1d3d
000002d0: ccfe 323e befe 443c 35ec ebbc 65af 593e
000002e0: a429 59bd 1122 ee3d b741 62bc 1e1c 8b3e
000002f0: d0e4 7cbc ad09 023d 8278 a3bd 62a4 abbd
00000300: f4d7 2ebd 2f5a e9bc f779 0ebe 882a 713d
00000310: a763 0ebd 73ff fd3d b225 a1bc acf8 2d3e
00000320: 77d3 09be e9cb 7dbe f5f7 4dbe ada7 ab3d
00000330: 4ae6 093e 4447 15be 9e9d 873d b417 673e
00000340: 8e3c a03d 6857 b63d 1b38 2a3d 9583 0dbe
00000350: d6c8 ef3b 2fe2 36bd 5a4b 8dbd 78ac a3bd
00000360: 3184 c73d a7a2 b03d a23d d6bd be9b d53d
00000370: aa8f 8d3e 032d 163e a6a1 6cbc 94d7 fbbd
00000380: 65b2 af3c 0d15 8abd 1e35 49bc fa4f e83d
00000390: 05f9 34bc d3b9 40be 8564 27bc 3579 04bc
000003a0: 74dd 073e 35bd c4bd de1a 103c 8bb7 d8bd
000003b0: d10f 463d a4e7 b2bc dfd1 edbd 1867 3f3d
000003c0: 783e 8fbe 9d95 d1bc 09f5 b5be 006d db3d
000003d0: 8ef8 9c3c d97a 9fbe 4853 9d3b c785 053d
000003e0: 60dc 283d adc8 24be a2dd d2bd d737 683d
000003f0: 9be8 96bd 7c52 b5bc a007 77bd d8b0 82bc

model.0.bias f4 [128]
0.02379658 -0.31437263 -0.052522678 -0.12793869 -0.1909443 -0.3068957 -0.35336956 -0.27394262
-0.099865936 -0.23024133 -0.34098303 -0.18963297 -0.19881058 -0.2611928 -0.3455718 0.11671012
-0.06620875 -0.21231073 -0.33153853 -0.15022443 -0.1882727 -0.3100703 -0.27384236 -0.12429653
-0.33051544 -0.23713574 -0.29749668 -0.18964434 -0.3198755 -0.13539037 -0.021700352 -0.06875595
-0.13085935 -0.068154894 -0.07445409 -0.12915568 -0.022017004 -0.18583001 0.021633554 -0.28533134
-0.32298064 -0.07523961 -0.2672709 -0.008847597 -0.17203054 0.0021322533 -0.3139212 -0.17319623
-0.23379952 -0.11319377 -0.27901834 -0.19126315 -0.15193628 -0.21489833 -0.19803298 -0.16258267
-0.10690844 -0.25999066 -0.2775987 -0.07618389 -0.30760846 -0.0452276 -0.07166559 -0.2572756
-0.1685773 -0.33683816 -0.18656632 -0.32746375 -0.29246688 -0.25228354 -0.11464481 -0.36428413
0.028205803 -0.2000214 -0.12797637 0.026177634 -0.3238415 -0.029316477 -0.2438779 -0.21759795
-0.2598767 -0.25658825 -0.241142 -0.1459314 -0.13743843 -0.20670961 0.0017925265 -0.13574359
-0.14723998 -0.26282755 -0.24453968 0.1445933 -0.011832034 -0.2799688 -0.19109868 0.008621481
-0.026555141 -0.14839804 0.05407541 -0.024870174 -0.13550738 -0.087818064 -0.3423966 -0.046757422
-0.023232691 -0.38782784 -0.20729266 -0.31845683 -0.12768814 -0.10358773 -0.3071145 -0.040835463
0.05452761 -0.19481371 -0.0022700655 0.0028756403 -0.2533627 0.086144306 -0.24408148 -0.108796865
-0.15137696 -0.29047585 -0.27395475 -0.2454376 -0.22730756 -0.37828952 -0.21654817 -0.3323586
00000000: 0cf1 c23c 73f5 a0be 0522 57bd 5c02 03be
00000010: e786 43be 6f21 9dbe dbec b4be 3542 8cbe
00000020: 8386 ccbd 62c4 6bbe 5495 aebe 252f 42be
00000030: 0095 4bbe 10bb 85be c9ee b0be b705 ef3d
00000040: 7498 87bd fc67 59be 6bbf a9be 6fd4 19be
00000050: 8fca 40be 89c1 9ebe 1135 8cbe 2e8f febd
00000060: 5239 a9be b6d3 72be 7c51 98be 2032 42be
00000070: b9c6 a3be c6a3 0abe f0c4 b1bc ebcf 8cbd
00000080: feff 05be cb94 8bbd 637b 98bd 6341 04be
00000090: 015d b4bc 394a 3ebe da38 b13c f316 92be
000000a0: b85d a5be 3a17 9abd bbd7 88be 83f5 10bc
000000b0: c628 30be 46bd 0b3b 48ba a0be 5a5a 31be
000000c0: 2469 6fbe 23d2 e7bd 7edb 8ebe 7dda 43be
000000d0: 2f95 1bbe 4f0e 5cbe 28c9 4abe 127c 26be
000000e0: d0f2 dabd 7f1d 85be 6b21 8ebe 4d06 9cbd
000000f0: db7e 9dbe 9340 39bd 69c5 92bd a1b9 83be
00000100: 879f 2cbe 0d76 acbe 3e0b 3fbe 54a9 a7be
00000110: 38be 95be 4f2b 81be e6ca eabd 7383 babe
00000120: db0f e73c 69d2 4cbe 3d0c 03be 7a72 d63c
00000130: 8ece a5be 1c29 f0bc 21bb 79be ffd1 5ebe
00000140: 8f0e 85be 895f 83be eeed 76be 0a6f 15be
00000150: a9bc 0cbe afab 53be 35f3 ea3a 5e00 0bbe
00000160: 14c6 16be 5591 86be 9c68 7abe 4410 143e
00000170: 26db 41bc 1258 8fbe 5faf 43be 1d41 0d3c
00000180: 2b8a d9bc a8f5 17be 2d7e 5d3d 89bc cbbc
00000190: 72c2 0abe f5d9 b3bd 9b4e afbe b684 3fbd
000001a0: 7c52 bebc 5f91 c6be 8744 54be c60c a3be
000001b0: aec0 02be ce25 d4bd 1d3e 9dbe 1643 27bd
000001c0: 5858 5f3d 3f7d 47be 61c5 14bb 3d75 3c3b
000001d0: c1b8 81be 6d6c b03d 7ff0 79be e4d0 debd
000001e0: 9002 1bbe 40b9 94be cc43 8cbe ff53 7bbe
000001f0: 50c3 68be 2aaf c1be cebe 5dbe e82a aabe

model.2.weight f4 [128]
0.851903 0.9231734 0.787892 0.7692939 0.8665171 0.9097871 1.137717 0.92795086
0.91950667 1.0034546 1.0386753 0.9158407 0.9244855 0.93025863 1.0815983 0.838256
1.045984 1.0489788 1.0469455 1.046651 1.0871514 0.9301523 1.2366319 0.9004467
1.0727714 1.0087247 0.9690646 0.7696988 0.78941596 0.83583134 0.78016144 1.0015788
0.91745424 0.9379117 0.9448763 1.2592839 0.7724754 0.9916644 0.72925836 0.97480065
0.9710348 1.0000337 1.014744 0.90338176 1.0762681 0.725719 0.9468136 0.80744666
0.8493483 1.1613907 1.1446564 1.0963367 0.84302586 1.1903036 1.0676596 1.0247072
0.795521 0.9683176 0.8661384 0.92383224 0.99887455 0.80630255 0.8384307 0.9848506
0.9287403 1.055547 0.7959337 1.0611007 1.0635177 1.1347984 0.8830392 0.95767564
0.8872606 0.95780367 0.9703565 0.7865557 0.9356207 0.7882272 1.1298163 1.063235
1.1700807 0.8670543 1.0278901 0.83898103 0.95604175 0.94872797 0.76898485 1.0488245
0.86753833 0.999825 0.9658894 0.79267526 0.89019156 0.9901331 0.9120836 0.799821
0.94378006 0.9395799 0.7655183 0.9197427 1.1437215 0.78932726 0.9525383 0.8910165
0.88365906 0.98827803 0.89894617 1.0047014 0.96262676 1.048597 1.0953956 0.8167703
0.8272122 0.937019 0.84878695 0.8066796 0.8618501 0.80585 0.887134 0.9179606
1.022984 0.8911693 1.1706164 0.98773915 1.1266855 1.0281146 0.7964462 0.959987
00000000: 5116 5a3f 1855 6c3f 4ab3 493f 72f0 443f
00000010: 11d4 5d3f cfe7 683f b6a0 913f 308e 6d3f
00000020: ca64 6b3f 3371 803f 50f3 843f 8974 6a3f
00000030: 15ab 6c3f 6e25 6e3f d071 8a3f f297 563f
00000040: cee2 853f f044 863f 4f02 863f a9f8 853f
00000050: c727 8b3f 761e 6e3f f449 9e3f ad83 663f
00000060: 9350 893f e41d 813f 9e14 783f fb0a 453f
00000070: 2a17 4a3f 0bf9 553f a9b8 473f bc33 803f
00000080: 48de 6a3f fb1a 703f 6ae3 713f 3730 a13f
00000090: f3c0 453f b8dd 7d3f adb0 3a3f 898c 793f
000000a0: bd95 783f 1b01 803f 22e3 813f 0744 673f
000000b0: 27c3 893f b8c8 393f 6062 723f d3b4 4e3f
000000c0: e46e 593f 73a8 943f 1a84 923f c354 8c3f
000000d0: 8bd0 573f de5b 983f 12a9 883f 9b29 833f
000000e0: 44a7 4b3f aae3 773f 3fbb 5d3f 4580 6c3f
000000f0: 3eb6 7f3f d869 4e3f 65a3 563f 2b1f 7c3f
00000100: edc1 6d3f 2a1c 873f 50c2 4b3f 26d2 873f
00000110: 5921 883f 1341 913f db0e 623f 3b2a 753f
00000120: 8323 633f 9f32 753f 4969 783f b75b 493f
00000130: d784 6f3f 42c9 493f d29d 903f 1618 883f
00000140: 34c5 953f 45f7 5d3f e791 833f 76c7 563f
00000150: 27bf 743f d6df 723f 31dc 443f e23f 863f
00000160: fe16 5e3f 88f4 7f3f 8744 773f c4ec 4a3f
00000170: 98e3 633f 5d79 7d3f 507e 693f 12c1 4c3f
00000180: 929b 713f 4f88 703f 02f9 433f 4274 6b3f
00000190: 7765 923f 5a11 4a3f 8dd9 733f a819 643f
000001a0: 7b37 623f caff 7c3f 5621 663f 0e9a 803f
000001b0: b56e 763f 6d38 863f ec35 8c3f dc17 513f
000001c0: 2ec4 533f 7ae0 6f3f 1a4a 593f 8e82 4e3f
000001d0: 35a2 5c3f 304c 4e3f 371b 633f 77ff 6a3f
000001e0: 24f1 823f ac23 643f c2d6 953f 79dc 7c3f
000001f0: 3b37 903f 4299 833f e6e3 4b3f b5c1 753f

model.2.bias f4 [128]
-0.102983445 0.29737428 0.30815068 -0.0753666 0.023497762 0.05608406 0.26696566 0.23572557
0.0389596 0.25678724 0.1372796 0.17864868 0.2942306 0.27403578 0.2583969 0.045287665
-0.0848613 0.18625312 0.065179 0.18303588 0.004991094 0.30221182 0.0039455346 0.17951916
0.25823325 0.0485041 0.09318987 0.20075104 0.16587913 0.21595599 0.075343855 0.0921197
0.33654347 0.39643106 0.056853585 0.3459675 0.21139888 -0.032420304 0.039703336 0.08123313
0.26808333 0.29498172 0.17737348 0.17952599 0.24211068 0.22759521 0.30099905 0.2976142
0.077645734 0.2319794 -0.027535334 0.037797973 0.16138145 0.15293612 0.1375311 0.19460307
0.08968531 -0.0031873642 0.2327149 0.32722232 0.051776774 -0.022151718 0.08100527 0.23536913
0.06638184 0.26432618 0.2900311 0.25384834 0.08323282 0.33743352 0.1972831 0.08949402
0.15874746 0.12303123 0.2731078 -0.029032316 0.34886324 0.35524493 0.20715332 0.34957683
0.04851124 0.12095288 0.27880558 0.25870383 -0.014079704 0.22187552 0.15728895 0.058282867
0.08838747 0.12485356 0.292507 0.24558994 0.39098102 0.34383026 0.33791068 0.14846937
0.32952598 0.17680529 -0.05718139 0.10788335 0.15122631 0.15712006 0.31176737 0.34259233
0.19552097 0.19280545 0.22395834 0.14867082 0.10898335 0.16521837 0.11022416 0.33641076
0.12242336 0.27937093 0.1996116 0.21538775 0.41285414 0.3011928 0.2764954 0.07678699
-0.0039451597 0.17809545 0.10598325 0.078046955 0.01807498 0.24020086 0.11416928 0.14548308
00000000: fce8 d2bd 7141 983e edc5 9d3e ce59 9abd
00000010: 617e c03c 66b8 653d b9af 883e 0b62 713e
00000020: 1a94 1f3d 9e79 833e 0693 0c3e aeef 363e
00000030: 65a5 963e 6b4e 8c3e 994c 843e 8f7f 393d
00000040: c3cb adbd 23b9 3e3e 917c 853d c26d 3b3e
00000050: 558c a33b 82bb 9a3e 8b49 813b dfd3 373e
00000060: 2637 843e 3cac 463d 55da be3d ae91 4d3e
00000070: 38dc 293e 9123 5d3e e14d 9a3d 41a9 bc3d
00000080: 6d4f ac3e 03f9 ca3e 4edf 683d a722 b13e
00000090: f378 583e 27cb 04bd f79f 223d 8e5d a63d
000000a0: 3842 893e d807 973e 65a1 353e a9d5 373e
000000b0: ddeb 773e b80e 693e 8c1c 9a3e e360 983e
000000c0: ba04 9f3d 028c 6d3e c891 e1bc 0cd2 1a3d
000000d0: 2e41 253e 499b 1c3e f4d4 0c3e 0746 473e
000000e0: efac b73d 19e3 50bb d14c 6e3e af89 a73e
000000f0: e213 543d 8577 b5bc 17e6 a53d 9b04 713e
00000100: 34f3 873d c355 873e f57e 943e 69f8 813e
00000110: f875 aa3d 16c4 ac3e 9504 4a3e a448 b73d
00000120: b28e 223e ccf7 fb3d c9d4 8b3e 2ed5 edbc
00000130: 349e b23e aae2 b53e 0020 543e bcfb b23e
00000140: b9b3 463d 25b6 f73d 9bbf 8e3e d474 843e
00000150: 8fae 66bc 5633 633e 5b10 213e 04ba 6e3d
00000160: 7d04 b53d 39b3 ff3d 7ac3 953e ee7b 7b3e
00000170: aa2e c83e 850a b03e a102 ad3e 5b08 183e
00000180: a1b7 a83e 720c 353e 0837 6abd f2f1 dc3d
00000190: 12db 1a3e 15e4 203e f99f 9f3e 4368 af3e
000001a0: a636 483e cb6e 453e 5655 653e 2a3d 183e
000001b0: aa32 df3d 012f 293e 34bd e13d 083e ac3e
000001c0: 19b9 fa3d b509 8f3e fc66 4c3e 9b8e 5c3e
000001d0: 9e61 d33e f135 9a3e ce90 8d3e 7f42 9d3d
000001e0: 6646 81bb a75e 363e bf0d d93d 15d7 9f3d
000001f0: fb11 943c 37f7 753e 95d1 e93d 84f9 143e

model.2.running_mean f4 [128]
0.17774294 0.13085695 0.31478295 0.17869744 0.14688814 0.22886668 0.0153795 0.07805337
0.099645354 0.12374488 0.04179877 0.08971198 0.13968833 0.08412311 0.09191739 0.19901916
0.20890832 0.069230966 0.032737494 0.083953686 0.11113881 0.20521699 0.03702227 0.31354585
0.033029206 0.10420542 0.05143107 0.17270249 0.27915922 0.2352808 0.25961453 0.38569397
0.09798677 0.468748 0.19436303 0.072388984 0.24529305 0.10908487 0.30117783 0.0425027
0.07504423 0.10570804 0.038779963 0.19793496 0.10622162 0.19419724 0.031290792 0.16724353
0.07216141 0.072351545 0.015581287 0.05029239 0.20742367 0.026605653 0.04926809 0.11236898
0.3024064 0.075069666 0.08174504 0.15330888 0.038783688 0.2191349 0.1617299 0.17373934
0.09134056 0.059940606 0.1452043 0.06289256 0.044345304 0.11044956 0.14515223 0.015499396
0.39512655 0.061517324 0.106472194 0.2103226 0.11814378 0.425226 0.06904039 0.065051936
0.017266342 0.14760993 0.039581377 0.26110536 0.1256339 0.13673529 0.39014035 0.13808767
0.21534483 0.06390992 0.14104402 0.33748978 0.35412377 0.091848716 0.19991456 0.20185743
0.21236123 0.115582615 0.47952294 0.22895122 0.05094778 0.2274881 0.10785552 0.22025438
0.2692512 0.03529838 0.051154938 0.062386382 0.20661584 0.06156267 0.021369025 0.35705826
0.20606886 0.22992373 0.20104259 0.22507031 0.0899717 0.2855229 0.2924303 0.11251771
0.09300805 0.02147087 0.0367031 0.09444427 0.026227228 0.029641986 0.26221186 0.038399693
00000000: 3f02 363e 5dff 053e 3b2b a13e 76fc 363e
00000010: d869 163e 075c 6a3e 4cfa 7b3c 72da 9f3d
00000020: dd12 cc3d f56d fd3d 3035 2b3d eaba b73d
00000030: 750a 0f3e bd48 ac3d 2f3f bc3d aecb 4b3e
00000040: 10ec 553e f7c8 8d3d c017 063d e9ef ab3d
00000050: bf9c e33d 6724 523e aaa4 173d 1589 a03e
00000060: a249 073d a769 d53d 63a9 523d ecd8 303e
00000070: f5ed 8e3e 73ed 703e 32ec 843e ae79 c53e
00000080: 4aad c83d bdff ef3e 1a07 473e ad40 943d
00000090: 1a2e 7b3e e367 df3d fb33 9a3e 5017 2e3d
000000a0: cab0 993d 757d d83d bdd7 1e3d 76af 4a3e
000000b0: b98a d93d a4db 463e c62a 003d e341 2b3e
000000c0: 5cc9 933d 0c2d 943d a848 7f3c 65ff 4d3d
000000d0: df66 543e 19f4 d93c 56cd 493d b521 e63d
000000e0: 03d5 9a3e 20be 993d f269 a73d 01fd 1c3e
000000f0: a5db 1e3d e664 603e 869c 253e bae8 313e
00000100: c210 bb3d 4884 753d 70b0 143e d1cd 803d
00000110: 6ca3 353d 6133 e23d c9a2 143e 2ef1 7d3c
00000120: 074e ca3e 97f9 7b3d 180e da3d cf5e 573e
00000130: 5ef5 f13d 39b7 d93e 0c65 8d3d f339 853d
00000140: 2572 8d3c 0f27 173e 1520 223d 9aaf 853e
00000150: 2ca6 003e 5604 0c3e 7ac0 c73e db66 0d3e
00000160: 5b83 5c3e 34e3 823d d86d 103e 76cb ac3e
00000170: b64f b53e 2e1b bc3d 67b6 4c3e b7b3 4e3e
00000180: 3975 593e 94b6 ec3d 0884 f53e 3072 6a3e
00000190: 9fae 503d a4f2 683e 5be3 dc3d 5d8a 613e
000001a0: 4bdb 893e 0995 103d d787 513d dd88 7f3d
000001b0: 1a93 533e 2329 7c3d 180e af3c 57d0 b63e
000001c0: b703 533e 2071 6b3e 1cde 4d3e d578 663e
000001d0: 1543 b83d 0f30 923e 6db9 953e af6f e63d
000001e0: 017b be3d aee3 af3c fd55 163d ff6b c13d
000001f0: 7cda d63c c0d3 f23c a240 863e ff48 1d3d

model.2.running_var f4 [128]
0.039120663 0.06976995 0.318054 0.102097675 0.22192326 0.10414978 0.0060011754 0.05171581
0.037981436 0.2143253 0.009319144 0.0358627 0.09549317 0.028461386 0.046966404 0.03091582
0.044089317 0.027912984 0.0074152634 0.028876552 0.030414233 0.16158514 0.005990016 0.58249426
0.0100227855 0.04165917 0.019483356 0.30229425 0.12774469 0.14070408 0.20516513 0.1962552
0.06801917 0.8847513 0.093910635 0.016130187 0.16264701 0.017279135 0.18256627 0.007811399
0.05038281 0.06626605 0.013440954 0.07200984 0.07279284 0.19216006 0.012311589 0.14059535
0.072227135 0.016642403 0.0049725547 0.019699963 0.22787409 0.008157183 0.01393545 0.03336414
0.19705653 0.07981334 0.015813492 0.055964384 0.010851285 0.2002624 0.09108611 0.12308036
0.07751268 0.023069344 0.07476556 0.03135889 0.016003085 0.029377313 0.051403426 0.017072875
0.22479075 0.023297412 0.03739531 0.086635515 0.105350494 0.8597185 0.06546054 0.02051053
0.0022460134 0.0888984 0.0063082124 0.22980595 0.051147465 0.0801451 0.7606183 0.037454408
0.10836247 0.02538576 0.13187735 0.16501209 0.6070621 0.041872654 0.1813575 0.10988723
0.17647459 0.038787976 0.41169327 0.08532358 0.010549345 0.24918702 0.062377512 0.1577325
0.19246453 0.011750981 0.017423345 0.025689118 0.12747559 0.013618791 0.0070553925 0.40213346
0.17226827 0.15932427 0.08693431 0.21097258 0.038833078 0.2629417 0.57218766 0.062418506
0.020249989 0.00741579 0.0075305956 0.08532814 0.0029507817 0.012294124 0.19517219 0.009492686
00000000: fd3c 203d 8ce3 8e3d f9d7 a23e 9618 d13d
00000010: da3f 633e 7b4c d53d 82a5 c43b f5d3 533d
00000020: 6c92 1b3d 1778 5b3e 53af 183c c4e4 123d
00000030: ec91 c33d da27 e93c d85f 403d 2c43 fd3c
00000040: 0097 343d c5a9 e43c bdfb f23b 858e ec3c
00000050: 4527 f93c 9376 253e e547 c43b 581e 153f
00000060: 9c36 243c cea2 2a3d 8f9b 9f3c 50c6 9a3e
00000070: 81cf 023e bb14 103e cf16 523e 20f7 483e
00000080: a24d 8b3d 107f 623f 3854 c03d 7423 843c
00000090: f08c 263e f98c 8d3c a7f2 3a3e c4f6 ff3b
000000a0: 355e 4e3d 7fb6 873d 7237 5c3c e579 933d
000000b0: 6a14 953d 9bc5 443e 8cb6 493c 3af8 0f3e
000000c0: d2eb 933d a655 883c d0f0 a23b d161 a13c
000000d0: d357 693e b5a5 053c 8451 643c d6a8 083d
000000e0: 30c9 493e 2d75 a33d 4c8b 813c e93a 653d
000000f0: 97c9 313c 9611 4d3e 5b8b ba3d 8e11 fc3d
00000100: f8be 9e3d ecfb bc3c b01e 993d 2e72 003d
00000110: e718 833c b1a8 f03c 668c 523d 6adc 8b3c
00000120: 8c2f 663e 37da be3c d32b 193d f66d b13d
00000130: 00c2 d73d 8316 5c3f 2d10 863d b305 a83c
00000140: da31 133b 5d10 b63d 1fb5 ce3b 4052 6b3e
00000150: 0180 513d 1d23 a43d e2b7 423f cb69 193d
00000160: 25ed dd3d ccf5 cf3c db0a 073e eef8 283e
00000170: 6c68 1b3f a982 2b3d c8b5 393e 8e0c e13d
00000180: c1b5 343e 24e0 1e3d 76c9 d23e 21be ae3d
00000190: 29d7 2c3c e22a 7f3e 907f 7f3d a184 213e
000001a0: 6c15 453e 3087 403c 67bb 8e3c fc71 d23c
000001b0: f688 023e 5921 5f3c ec30 e73b 70e4 cd3e
000001c0: 1867 303e e725 233e 9e0a b23d 3209 583e
000001d0: 6f0f 1f3d 4ba0 863e e47a 123f 8caa 7f3d
000001e0: 4ee3 a53c 2800 f33b 37c3 f63b 85c0 ae3d
000001f0: e761 413b 4b6d 493c 38db 473e 3687 1b3c

model.4.weight f4 [64, 128]
-0.0609781 -0.023153633 0.021836339 -0.057478324 0.07735574 0.033799455 -0.069090046 -0.1476858
0.016343866 -0.017472548 -0.068217 -0.0051805093 -0.08462475 -0.12476889 -0.13845085 0.13413188
0.06339429 -0.0032357373 0.056195978 0.1601766 0.13128108 -0.10055424 0.20742668 0.01384964
0.039565127 -0.18880925 0.084259614 0.024263773 0.04811919 0.056771386 0.065165795 0.0034408688
-0.09546911 0.0508686 -0.05381717 0.19107692 -0.025369272 0.06492619 -0.030342622 -0.12461572
-0.048907734 0.12455028 -0.09630626 -0.12744473 -0.027970918 -0.05594958 0.015181579 -0.08000103
0.09838869 0.11060827 0.108869456 -0.18185851 0.057127215 0.05897785 -0.13166831 -0.046395898
-0.031508468 -0.009665177 0.020381117 0.14274278 -0.15924495 0.008449215 0.106469624 -0.06004236
-0.07202544 -0.013097679 0.019035572 0.07656088 -0.10334113 0.08047503 0.022374175 0.080701806
0.100564815 -0.04071348 0.14302915 -0.00016437993 -0.046633396 0.0017456324 -0.21248607 -0.078277566
0.12750265 0.04725616 -0.2306856 0.03501554 -0.049999297 0.07496436 -0.0051847813 -0.07870751
-0.10022661 0.08844334 0.026025072 -0.022636393 -0.0072344495 -0.10587366 0.16516404 0.05057762
-0.048869878 0.112041 0.075801454 0.0002172645 0.0912269 -0.011692724 -0.0005918379 -0.001965624
0.012986618 0.09572111 -0.06868111 0.02222822 -0.10305462 -0.2554842 -0.057160433 0.03726867
0.030846845 -0.058559075 -0.0035086067 0.03351591 0.0661546 -0.049013544 0.07865311 0.10494274
-0.21065207 -0.04978571 0.11162319 0.020423334 0.09558646 0.05466915 -0.07439444 0.06222547
-0.049807165 -0.02112266 -0.0716432 0.0126509825 0.053117935 -0.008797922 0.0074522155 -0.049584746
-0.07209871 0.11167735 -0.18879753 -0.17888424 0.05094419 0.023081077 0.037140995 0.02141152
0.07000092 -0.25716072 -0.2779421 -0.03411536 0.111913525 -0.05267804 -0.16082728 -0.115231775
-0.008326207 -0.011542656 -0.07405454 -0.08781026 -0.06867596 -0.09877006 -0.0183676 0.056630056
-0.09492142 -0.216459 0.026349973 -0.36132312 -0.019925077 0.059106857 0.0056849523 -0.037789475
0.022377405 -0.057377428 0.05293315 -0.0696036 -0.033794742 0.09887766 0.05262566 0.098079674
0.037628006 -0.14324322 -0.1698224 0.03380595 0.05538363 -0.26332763 -0.059313066 0.059691552
0.056572195 0.030910114 -0.011369474 -0.0130018005 -0.0005572259 -0.00199153 -0.09808065 -0.026655473
-0.047971018 -0.023676379 0.06769107 -0.08581475 0.07205804 0.12309413 0.045341697 -0.030970437
0.0020199735 0.061254226 -0.049901344 -0.042127557 -0.044861782 -0.1770468 -0.019493166 0.015044368
-0.15132494 -0.05399994 0.03800458 0.0043040267 0.06460152 0.05222529 -0.045718923 0.1184915
0.01321437 0.10134879 -0.014155974 0.032697283 -0.112660766 -0.025028555 -0.13492304 -0.038479824
0.04682929 0.0996474 -0.013634855 -0.09404568 0.105618015 0.045033913 -0.021458605 0.012919989
0.052650888 -0.031178353 0.02992496 -0.10327756 0.033526715 -0.02172264 -0.03408656 -0.05195092
0.020510852 -0.024080845 0.04199859 -0.106794834 -0.07196576 -0.026157165 -0.081685744 0.084746405
0.059867505 -0.024040919 -0.17417948 -0.008182391 -0.2673963 -0.08145259 0.039421823 -0.018517828
00000000: 2cc4 79bd b0ac bdbc 1fe2 b23c 646e 6bbd
00000010: b06c 9e3d 4c71 0a3d 157f 8dbd f23a 17be
00000020: 92e3 853c 9722 8fbc 5bb5 8bbd 43c1 a9bb
00000030: be4f adbd d586 ffbd 0fc6 0dbe de59 093e
00000040: ded4 813d aa0e 54bb c12d 663d 5605 243e
00000050: 8c6e 063e 62ef cdbd a967 543e 9ae9 623c
00000060: 0b0f 223d 3657 41be 4e90 ac3d d2c4 c63c
00000070: a118 453d 1d89 683d a575 853d 3380 613b
00000080: 4f85 c3bd 985b 503d 656f 5cbd aba9 433e
00000090: 38d3 cfbc 06f8 843d 1791 f8bc 8736 ffbd
000000a0: 7a53 48bd 3814 ff3d 373c c5bd df80 02be
000000b0: 4423 e5bc 632b 65bd 28bc 783c 94d7 a3bd
000000c0: 0280 c93d 9786 e23d f3f6 de3d 1e39 3abe
000000d0: 3afe 693d c292 713d 0fd4 06be a009 3ebd
000000e0: 060f 01bd b15a 1ebc 4df6 a63c 2a2b 123e
000000f0: 1c11 23be 946e 0a3c bf0c da3d faee 75bd
00000100: 1382 93bd a697 56bc 7df0 9b3c f3cb 9c3d
00000110: 84a4 d3bd 18d0 a43d 0c4a b73c fd46 a53d
00000120: edf4 cd3d 2ec3 26bd 3c76 123e 675d 2cb9
00000130: a902 3fbd b4cd e43a f395 59be fd4f a0bd
00000140: 0e90 023e ad8f 413d d938 6cbe 746c 0f3d
00000150: 10cc 4cbd ea86 993d 19e5 a9bb 6731 a1bd
00000160: 9c43 cdbd c821 b53d 8832 d53c f56f b9bc
00000170: f60e edbb 4ad4 d8bd c320 293e 7a2a 4f3d
00000180: c82b 48bd c075 e53d cb3d 9b3d 7fd1 6339
00000190: 2bd5 ba3d d792 3fbc 9225 1bba b3d1 00bb
000001a0: d3c5 543c 6e09 c43d afa8 8cbd f517 b63c
000001b0: 4d0e d3bd d3ce 82be 0f21 6abd 08a7 183d
000001c0: 86b2 fc3c a4db 6fbd a7f0 65bb fb47 093d
000001d0: 107c 873d 6dc2 48bd e214 a13d 38ec d63d
000001e0: 2db5 57be 1aec 4bbd b39a e43d d64e a73c
000001f0: d5c2 c33d c2ec 5f3d 1d5c 98bd 22e0 7e3d
00000200: 9902 4cbd 6e09 adbc acb9 92bd 1146 4f3c
00000210: 3192 593d 2925 10bc b731 f43b 6019 4bbd
00000220: 7da8 93bd 18b7 e43d 2454 41be 6e2d 37be
00000230: dbaa 503d 8714 bd3c 2821 183d 3667 af3c
00000240: a45c 8f3d 92aa 83be 6d4e 8ebe 8cbc 0bbd
00000250: eb32 e53d eec4 57bd e8af 24be a3fe ebbd
00000260: a56a 08bc 691d 3dbc e8a9 97bd ded5 b3bd
00000270: fba5 8cbd f547 cabd a677 96bc ebf4 673d
00000280: 2966 c2bd 6ea7 5dbe e6db d73c 58ff b8be
00000290: ea39 a3bc 081a 723d d648 ba3b 23c9 1abd
000002a0: d250 b73c 9804 6bbd 6ed0 583d 558c 8ebd
000002b0: 5b6c 0abd 5f80 ca3d 018e 573d ffdd c83d
000002c0: d31f 1a3d 5aae 12be ece5 2dbe 1c78 0a3d
000002d0: f2d9 623d e1d2 86be 42f2 72bd 217f 743d
000002e0: 3fb8 673d 3537 fd3c 0847 3abc 8105 55bc
000002f0: cc12 12ba 5484 02bb 82de c8bd 945c dabc
00000300: 427d 44bd f7f4 c1bc 9ea1 8a3d a5bf afbd
00000310: 2a93 933d c618 fc3d 37b8 393d b7b5 fdbc
00000320: 8861 043b b6e5 7a3d 5a65 4cbd f28d 2cbd
00000330: fdc0 37bd c24b 35be 22b0 9fbc a77c 763c
00000340: edf4 1abe 0b2f 5dbd b1aa 1b3d cb08 8d3b
00000350: cd4d 843d 30ea 553d c443 3bbd acab f23d
00000360: 1681 583c f48f cf3d 75ee 67bc 96ed 053d
00000370: b0ba e6bd af08 cdbc 4429 0abe 059d 1dbd
00000380: 12d0 3f3d f013 cc3d ba64 5fbc 059b c0bd
00000390: 424e d83d 7b75 383d f5c9 afbc 5dae 533c
000003a0: 75a8 573d bf69 ffbc 3125 f53c 2f83 d3bd
000003b0: 4f53 093d aef3 b1bc 599e 0bbd 7dca 54bd
000003c0: 6006 a83c 3145 c5bc b706 2c3d 40b7 dabd
000003d0: c962 93bd 8d47 d6bc db4a a7bd 868f ad3d
000003e0: a137 753d 76f1 c4bc 1b5c 32be 6f0f 06bc
000003f0: 2be8 88be 9ed0 a6bd c778 213d b3b2 97bc

model.4.bias f4 [64]
0.13548231 0.09298847 0.06854528 0.13230166 0.023270058 -0.12819028 -0.35318056 -0.21227391
-0.17165554 0.030902097 -0.007120281 0.046550084 -0.19292821 0.43365914 -0.20147143 0.120263785
0.038955126 -0.16524807 0.0979837 -0.13972953 0.0106852185 0.22451463 0.021421494 -0.07799796
0.053239543 -0.029636145 0.09882729 -0.045798063 -0.15736629 -0.120730236 0.07572572 -0.41714406
-0.0047824085 -0.15972483 -0.027275497 -0.09038916 -0.051812597 -0.13487546 -0.062603384 0.043490354
0.011780636 0.048327602 -0.09684428 -0.17711204 -0.22895743 0.3060689 0.009045364 -0.043890726
-0.107389435 -0.32168788 -0.18374436 -0.18375516 -0.005103902 -0.3694612 -0.050223257 -0.37720537
-0.031879306 -0.24694061 -0.20162483 -0.04890889 -0.19931751 0.040456843 0.08087409 -0.051002733
00000000: e0bb 0a3e bd70 be3d 7861 8c3d 167a 073e
00000010: d9a0 be3c 5044 03be 15d4 b4be 555e 59be
00000020: 78c6 2fbe 6526 fd3c 3f51 e9bb 4dab 3e3d
00000030: f98e 45be 9208 de3e 874e 4ebe dc4c f63d
00000040: 698f 1f3d ca36 29be aeab c83d 4215 0fbe
00000050: 0e11 2f3c 2ae7 653e 217c af3c 65bd 9fbd
00000060: b511 5a3d 80c7 f2bc f665 ca3d c096 3bbd
00000070: a124 21be 6a41 f7bd 1616 9b3d e893 d5be
00000080: c0b5 9cbb e88e 23be dd70 dfbc f41d b9bd
00000090: 7239 54bd cb1c 0abe 3436 80bd f122 323d
000000a0: 9203 413c 2af3 453d 4b56 c6bd dc5c 35be
000000b0: d173 6abe 10b5 9c3e 0233 143c c3c6 33bd
000000c0: feee dbbd 46b4 a4be 7b27 3cbe 502a 3cbe
000000d0: a23e a7bb 052a bdbe e7b6 4dbd 1021 c1be
000000e0: e093 02bd 00de 7cbe bd76 4ebe b054 48bd
000000f0: e419 4cbe 13b6 253d 51a1 a53d 3ee8 50bd

model.6.weight f4 [64]
1.2026759 1.1032472 1.0663642 1.120919 1.0515981 1.050286 1.1479002 1.0507643
1.1758764 1.040424 1.1248264 0.9967499 1.1260337 1.0940106 1.0992835 1.1222274
1.1063426 1.1108886 1.064865 1.1009752 0.9910208 1.1247692 1.0952713 1.1448144
1.0849322 1.0509079 0.9790407 1.2236606 1.1080844 1.0325441 1.2419962 1.2360237
1.030147 1.0764428 1.0632381 1.0358855 1.0962209 1.0074103 1.0284134 1.1076897
1.04535 1.0427197 1.160818 1.0213649 1.1135408 1.110173 1.0013767 1.0947983
1.0464445 1.2190493 1.1059439 1.2142166 1.1396564 1.1709805 1.1968747 1.135
1.0630491 1.0436149 1.1166805 1.1255538 1.0179088 1.0369745 1.0898587 1.0708996
00000000: 49f1 993f 3437 8d3f 9f7e 883f 467a 8f3f
00000010: c49a 863f c66f 863f 65ee 923f 727f 863f
00000020: 1e83 963f 9d2c 853f 50fa 8f3f 002b 7f3f
00000030: df21 903f 8a08 8c3f 52b5 8c3f 26a5 8f3f
00000040: a29c 8d3f 9931 8e3f 7f4d 883f c1ec 8c3f
00000050: 8ab3 7d3f 70f8 8f3f da31 8c3f 4789 923f
00000060: 0fdf 8a3f 2684 863f 69a2 7a3f e9a0 9c3f
00000070: b6d5 8d3f 682a 843f bbf9 9e3f 0636 9e3f
00000080: dbdb 833f e1c8 893f 3018 883f e597 843f
00000090: f750 8c3f d2f2 803f 0da3 833f c7c8 8d3f
000000a0: 07ce 853f d777 853f af95 943f 16bc 823f
000000b0: 8188 8e3f 261a 8e3f 1d2d 803f 5a22 8c3f
000000c0: e5f1 853f cf09 9c3f 928f 8d3f 736b 9b3f
000000d0: 43e0 913f b0e2 953f 3133 993f ae47 913f
000000e0: fe11 883f 2c95 853f 63ef 8e3f 2612 903f
000000f0: d64a 823f 95bb 843f 7d80 8b3f 3d13 893f

model.6.bias f4 [64]
0.1796473 0.08360239 0.07470318 0.14747335 0.0028210618 0.29902458 0.26447213 0.28530014
0.2829424 -0.048286054 0.34160513 -0.09213527 0.2227233 -0.022441292 0.26518935 0.16519333
0.3086954 0.37102044 -0.14608933 0.3180465 0.088950306 -0.043888982 0.23304896 0.13287808
0.009350635 0.27707973 -0.063638695 0.25187767 0.42325893 0.2921854 0.081260316 0.36169437
0.22644918 0.38795206 0.23911281 -0.0006526682 0.3777098 0.23281834 0.3192199 0.19569865
0.0027483173 -0.0003775619 0.31991777 0.27055484 0.38656798 -0.12748867 0.26504186 0.23168209
0.1334247 0.23605826 0.03591234 0.35775378 0.29895285 0.33785236 0.27052134 0.35271776
0.27699614 0.2779212 0.2615732 0.33282495 0.2658305 0.14777508 -0.06489641 -0.05268929
00000000: 76f5 373e bb37 ab3d fbfd 983d 4103 173e
00000010: 90e1 383b c019 993e e468 873e dc12 923e
00000020: d4dd 903e 99c7 45bd dee6 ae3e 6bb1 bcbd
00000030: 9411 643e cdd6 b7bc e6c6 873e 7128 293e
00000040: 530d 9e3e 64f6 bd3e 7198 15be fed6 a23e
00000050: 942b b63d efc4 33bd 63a4 6e3e 3111 083e
00000060: 6833 193c 65dd 8d3e 0155 82bd 1cf6 803e
00000070: 65b5 d83e 5399 953e cf6b a63d 0130 b93e
00000080: 4be2 673e a7a1 c63e fdd9 743e d217 2bba
00000090: 2e63 c13e ee67 6e3e ca70 a33e 3a65 483e
000000a0: 1d1d 343b 80f3 c5b9 43cc a33e 2a86 8a3e
000000b0: 3dec c53e 648c 02be 91b3 873e 123e 6d3e
000000c0: 7ca0 083e 42b9 713e d118 133d 812b b73e
000000d0: 5910 993e fcfa ac3e c681 8a3e 6c97 b43e
000000e0: 70d2 8d3e b04b 8e3e ecec 853e 0868 aa3e
000000f0: ef1a 883e 5a52 173e 69e8 84bd bad0 57bd

model.6.running_mean f4 [64]
0.88618845 0.510881 0.5745433 1.0568786 0.45128635 0.7353536 0.29333037 0.6701576
0.99050874 0.5111291 0.45935205 0.5710518 0.4573027 0.9028192 0.47919363 0.6024863
0.56067216 0.328426 0.6020212 0.18741098 0.37972766 0.63921595 0.43762356 0.57000893
0.53447217 0.64761657 0.5012373 0.8816983 0.4396627 0.58749694 0.98708355 0.38251746
0.59735215 0.45629993 0.59799516 0.25531274 0.63752526 0.5854171 0.5089228 0.64544684
0.49916708 0.55697113 0.24024099 0.5995804 0.51672703 0.73923767 0.6083932 0.52807343
0.25862572 0.1118047 0.75919694 0.4499602 0.5132035 0.0944122 0.3260529 0.16742851
0.6376037 0.52642757 0.4335862 0.47432718 0.59996635 0.48805568 0.42599118 0.44236854
00000000: 3fdd 623f 19c9 023f 4515 133f cc47 873f
00000010: 010f e73e 2240 3c3f 662f 963e 738f 2b3f
00000020: fb91 7d3f 5bd9 023f 3130 eb3e 7330 123f
00000030: 9423 ea3e 291f 673f de58 f53e 8b3c 1a3f
00000040: 3688 0f3f 7427 a83e 101e 1a3f aae8 3f3e
00000050: aa6b c23e a8a3 233f 3210 e03e 1bec 113f
00000060: 2bd3 083f 33ca 253f 1651 003f fbb6 613f
00000070: 781b e13e 3366 163f 82b1 7c3f 54d9 c33e
00000080: 12ec 183f 25a0 e93e 3616 193f 5ab8 823e
00000090: db34 233f e5dd 153f c448 023f 013c 253f
000000a0: d492 ff3e a995 0e3f bc01 763e 1a7e 193f
000000b0: 3948 043f ae3e 3d3f a8bf 1b3f d22f 073f
000000c0: 976a 843e ddf9 e43d bb5a 423f 2f61 e63e
000000d0: 4e61 033f 2f5b c13d 68f0 a63e 6172 2b3e
000000e0: ff39 233f f5c3 063f 03ff dd3e 03db f23e
000000f0: 6597 193f 6fe2 f93e 841b da3e 217e e23e

model.6.running_var f4 [64]
2.129891 0.88070023 0.8899299 2.6161468 0.50576943 2.3039353 0.59893095 1.491669
2.6289792 0.8332079 0.6922517 1.2550774 1.069517 1.1156222 1.0972904 0.96793115
0.7925074 0.45140207 1.0394193 0.15566865 0.77976185 0.9145629 0.70035243 1.1023141
0.6358897 1.6093013 0.63048285 2.308596 0.6089177 1.4111236 2.4893641 0.60306716
1.2566476 0.5965081 1.2841493 0.23250827 1.0255505 1.3781446 0.9754331 1.0813524
0.735543 1.0883979 0.29523292 1.4686627 0.89120847 1.2044425 1.5995771 1.0775428
0.24199088 0.087146126 2.0760114 0.6879297 1.0637645 0.073940314 0.41076753 0.15101169
1.4430128 1.1020575 1.0008802 0.7048946 1.630635 0.8496955 0.41851437 0.5507386
00000000: 2250 0840 9275 613f 72d2 633f f36e 2740
00000010: 1b7a 013f ad73 1340 8a53 193f 03ef be3f
00000020: 3241 2840 1d4d 553f 6837 313f 60a6 a03f
00000030: efe5 883f b5cc 8e3f 0374 8c3f 56ca 773f
00000040: c4e1 4a3f 2c1e e73e b10b 853f 9a67 1f3e
00000050: 799e 473f cb20 6a3f 4c4a 333f a118 8d3f
00000060: abc9 223f 96fd cd3f 5367 213f 09c0 1340
00000070: 08e2 1b3f b39f b43f be51 1f40 9c62 1a3f
00000080: d4d9 a03f c1b4 183f 015f a43f a616 6e3e
00000090: 3d45 833f 0b67 b03f fcb5 793f c169 8a3f
000000a0: 8c4c 3c3f 9f50 8b3f c528 973e 24fd bb3f
000000b0: 3d26 643f 2c2b 9a3f f1be cc3f ecec 893f
000000c0: 75cc 773e ab79 b23d 5fdd 0440 291c 303f
000000d0: 6f29 883f 056e 973d 1f50 d23e cfa2 1a3e
000000e0: a5b4 b83f 3810 8d3f d81c 803f f973 343f
000000f0: a6b8 d03f a585 593f 8447 d63e 34fd 0c3f

model.8.weight f4 [1, 64]
0.17222115 -0.10881663 -0.14431927 0.20471452 -0.12323088 -0.18246436 -0.17019369 -0.19179444
0.27628207 -0.12396535 0.23826908 -0.11175077 -0.16502313 -0.12275037 -0.17858319 -0.108969726
0.27185658 0.36776513 -0.109229244 0.31167686 -0.1278424 -0.09500167 -0.149874 0.14941777
-0.10041568 -0.19149815 -0.09695628 0.28346336 0.39000675 -0.25313443 0.20598212 0.30580324
-0.17080735 0.28635132 -0.13349168 -0.086489566 0.3230004 -0.18020757 -0.20170616 -0.11176368
-0.124944575 -0.1181164 0.32456076 -0.18734798 0.43567756 -0.10992207 -0.14912538 -0.10871875
-0.09053603 0.26424006 0.19358845 0.30420926 0.24194916 0.31080848 0.25892487 0.37848896
-0.18347114 -0.15911236 -0.20458582 0.27798444 -0.16362529 -0.11849822 -0.09152401 -0.111955956
00000000: be5a 303e 41db debd 6ec8 13be afa0 513e
00000010: 7960 fcbd f0d7 3abe 4147 2ebe c365 44be
00000020: d874 8d3e 8ce1 fdbd cffc 733e 96dd e4bd
00000030: d3fb 28be 8c64 fbbd 83de 36be 852b dfbd
00000040: c930 8b3e b64b bc3e 95b3 dfbd 1c94 9f3e
00000050: 1ee9 02be 3c90 c2bd 9278 19be f900 193e
00000060: bca6 cdbd 1718 44be 0491 c6bd 1c22 913e
00000070: f7ae c73e d69a 81be faec 523e 3e92 9c3e
00000080: 1fe8 2ebe a49c 923e 0bb2 08be 7121 b1bd
00000090: 4f60 a53e 5588 38be 0f8c 4ebe 5be4 e4bd
000000a0: f1e2 ffbd 03e7 f1bd d42c a63e 26d8 3fbe
000000b0: 2111 df3e d21e e1bd 53b4 18be f0a7 debd
000000c0: f46a b9bd 794a 873e 0d3c 463e 51c1 9b3e
000000d0: 85c1 773e 4a22 9f3e cd91 843e 4ec9 c13e
000000e0: dcdf 3bbe 5aee 22be f27e 51be fa53 8e3e
000000f0: 638d 27be 32af f2bd f170 bbbd 2a49 e5bd
