SentinelAI/models/prompt_model.pth (torch, 999453 bytes, 5 tensors)

net.0.weight f4 [128, 1622]
000000 63 dd c8 bc 30 5e 17 bd 20 04 62 3a 9f 29 a1 bc
       -0.024519628 -0.03695506 0.00086218305 -0.019673167
000010 e7 3d 20 3b ce c7 7a bb 12 d4 6f bc 1a 5c 5a bc
       0.002445096 -0.0038266066 -0.014637964 -0.013327623
000020 02 43 c5 bc 37 cd 28 bd da 6d f7 bc a5 06 3d bd
       -0.024079803 -0.041211333 -0.030203748 -0.046148915
000030 5f 9a cb bc 2b 6e cf bb be ac 6e 3a 5e 89 ff bc
       -0.024853883 -0.0063302717 0.000910472 -0.031193431
000040 c8 18 8d 3c 87 29 30 3d 54 a8 ce 3c 9a 09 a5 3c
       0.01722373 0.043008354 0.02522675 0.02014618
000050 94 4f 2b bc 6a c7 e2 bc 1b f6 0d bd 3c 73 ca 3a
       -0.010455985 -0.027682979 -0.034658533 0.001544572
000060 9d 5b 8c bc 96 a8 ed bc 3f 3f 9e bc 8b d7 0f bd
       -0.017133528 -0.029011052 -0.019317267 -0.035117667
000070 1f 9f 23 3c 0c 84 64 bc 1a a7 be bc 33 46 8d bc
       0.009986668 -0.013947498 -0.02327304 -0.017245388
000080 58 c6 14 bd f6 30 d8 bc d0 28 7e 3b dc ce bb bb
       -0.036321968 -0.026390534 0.003878165 -0.0057314467
000090 41 aa a9 b9 bd a4 e6 bc 4c c0 6c bc 5f b9 87 bb
       -0.0003236104 -0.028154725 -0.014450144 -0.004141971
0000a0 c5 da 29 3c 90 22 a0 3b 66 a4 01 bc 41 12 9c bc
       0.0103671 0.0048869327 -0.007912731 -0.019051673
0000b0 c6 64 69 bc 5b 22 c8 bc 99 1e 07 bd 9a 8b 09 3c
       -0.014245218 -0.024430444 -0.032988165 0.0083951
0000c0 cd 50 cc bb 21 52 8c bc 29 d2 75 bd 86 cb e6 bc
       -0.006235218 -0.017129006 -0.060014877 -0.02817322
0000d0 21 dc 3c bd 5d 52 1b bc 9f b2 05 bd 50 b6 7f bc
       -0.04610837 -0.009480086 -0.03264105 -0.0156074315
0000e0 ba 04 70 bc 90 2b 44 bc c0 a6 02 bb 0b da 18 3a
       -0.014649564 -0.011973277 -0.0019935817 0.0005830831
0000f0 21 27 b9 bc 72 07 8d bc 61 a8 05 bc de 6f ab 3c
       -0.022601666 -0.017215464 -0.00815782 0.020927366
000100 45 cf 44 3d cf 74 2f bd 28 eb 9a bb 33 15 28 bd
       0.04804923 -0.042836007 -0.00472774 -0.041035842
000110 b1 80 9e bc 77 2b ef bb 6e 65 bd bc 86 26 47 bc
       -0.019348474 -0.0072988826 -0.023119655 -0.012155181
000120 78 03 2d 3c 6e 96 fa 3a 99 2a eb bc b2 a5 e1 bc
       0.010559909 0.0019118318 -0.028706836 -0.02754483
000130 c1 7f ed b9 7c 4a 15 bd 1f 79 30 bc de d2 41 3d
       -0.00045299347 -0.036447987 -0.010771065 0.04732024
000140 a3 81 e7 3c 56 17 1e 3c 92 b9 07 3d 57 21 88 bc
       0.028260058 0.009649118 0.033135958 -0.01661746
000150 ee c3 d7 3a 0a e6 3f 3b f1 82 07 bd 18 6d 99 bb
       0.001646159 0.00292814 -0.03308386 -0.0046821944
000160 d1 33 06 bd 2f 9c 8c bc a8 d0 b8 bc eb 52 2e bc
       -0.03276426 -0.017164318 -0.022560433 -0.010639886
000170 9b ea 26 bd a2 a0 df bb f7 6a 10 bd d8 a8 88 3a
       -0.04075108 -0.006824569 -0.03525826 0.0010426296
000180 1d 19 31 bd 5b fe 93 bc ba 97 ed bc 27 d0 49 bc
       -0.04323684 -0.018065622 -0.029003013 -0.012317694
000190 fe 41 64 3b 02 a7 a2 bc d8 60 af bc d8 b1 b3 bc
       0.0034829373 -0.019855026 -0.021408483 -0.021935388
0001a0 de 0d fd bc b9 d8 89 bc d3 71 47 bc c8 c6 6b bc
       -0.030890401 -0.016826974 -0.012173134 -0.014390655
0001b0 e8 42 7c 3a 7c e0 6f bc a5 d5 9d bc d4 39 a7 bc
       0.0009623007 -0.014640924 -0.019266913 -0.020413317
0001c0 f5 88 86 bc 68 48 94 bb 97 3e 1e bd d9 a7 47 bc
       -0.016422728 -0.004525233 -0.03863391 -0.012186014
0001d0 97 60 93 3c 88 7b 8c bb e7 c8 81 bd 62 01 0f bd
       0.017990394 -0.004287187 -0.06337147 -0.034913428
0001e0 33 88 79 bc 59 68 a4 bc 29 20 32 3b 20 e1 60 bd
       -0.015230226 -0.020069288 0.0027179813 -0.054902196
0001f0 34 5e 48 bd 8c cc 36 bc ab 64 f2 bc 34 7e a6 bb
       -0.048917964 -0.011157166 -0.029589018 -0.0050809626
000200 56 00 93 bc a3 c0 15 bc 8c 5f 5e 3c 27 1e 6c 3c
       -0.017944496 -0.009140166 0.013572585 0.014411486
000210 3c ce ea bc e9 8f 92 bc 19 8b 19 bd f7 2e 03 bd
       -0.028662793 -0.017890887 -0.03748617 -0.03202721
000220 40 4c 25 bc 06 d4 3d bd a8 9a 5b bd 4d d8 19 bc
       -0.01008898 -0.04634478 -0.05361429 -0.009389949
000230 fb a3 d7 bc d5 be 51 3d 78 f8 0b 3d e3 da 7c 3d
       -0.02632331 0.051207382 0.034172505 0.061732184
000240 e3 dc dd 3c 8a f7 43 3d 09 29 35 bd 85 47 95 3c
       0.027082866 0.047843494 -0.044228587 0.01822258
000250 79 1a 39 bd 7d f1 08 bd 0b 28 f1 bc 37 3f af bb
       -0.045191262 -0.033433426 -0.02943804 -0.005348112
000260 58 3a 5e bc 9d d9 88 3b 5e fe ca bb 25 ff 8d bb
       -0.013563715 0.004176332 -0.0061948737 -0.004333394
000270 f7 eb d2 bc 86 65 f0 3b 7f 91 4b 3c b6 5a b2 bc
       -0.025747282 0.0073363213 0.012424826 -0.02177177
000280 d3 34 0c 3d 8b 12 2d bd 70 2d 78 3d 92 b0 96 bc
       0.034230065 -0.042254012 0.060590208 -0.018394742
000290 d7 81 8d bb 62 40 15 3d c9 5b 1a bd 53 23 08 bc
       -0.0043184566 0.036438353 -0.03768519 -0.008309203
0002a0 fc 2d 60 bc 0e 19 e2 bc da 0a be bc c9 62 bd ba
       -0.0136828385 -0.027599838 -0.023198534 -0.0014448996
0002b0 06 0d 09 3c 59 29 30 3c c7 4c 05 bd 2d e8 1f bd
       0.008364921 0.010752046 -0.032543924 -0.03903978
0002c0 71 5f d5 3c 37 36 27 3d 03 e3 f9 bb 0f 0c bd bc
       0.026046487 0.040823188 -0.007625939 -0.023077039
0002d0 32 e9 53 bd 9f 6d 3f bc 74 44 a9 bc b7 be 14 bd
       -0.051736064 -0.011683851 -0.020662524 -0.036314692
0002e0 93 eb e9 bb f3 0a ea bb 87 00 ea 3c 56 f7 6c bd
       -0.0071386783 -0.0071424185 0.028564705 -0.057853065
0002f0 78 b2 f4 3c d1 05 ec 3c ee 7f 62 3d 4e e3 14 3d
       0.029870257 0.028811367 0.055297785 0.036349587
000300 ea 21 04 3d 1f a5 a9 3c 2d bf 43 bd ec e8 68 bc
       0.032258905 0.020708619 -0.04778974 -0.014215689
000310 ce 1b ba 3c 82 5f 03 bd d4 31 b3 bc 67 6c f1 3b
       0.022718336 -0.032073505 -0.021874346 0.007367659
000320 95 e0 3f 3c 30 11 93 3a a3 b6 94 3c bb fb fd ba
       0.011711259 0.0011220332 0.018153494 -0.001937739
000330 74 2b ae bc 87 b2 13 3d d7 be 77 3b 32 6a 05 3d
       -0.021260954 0.03605893 0.0037802958 0.03257198
000340 a6 65 67 3d f5 c2 ec bc d8 4c 70 bc 01 55 ca bc
       0.056493424 -0.028901557 -0.0146667585 -0.024698736
000350 19 01 1a bd 63 ee ae ba 05 11 f8 3c 34 2b c2 bd
       -0.037598703 -0.0013346191 0.030281553 -0.094808966
000360 e1 db b5 bc 39 d1 92 bc dc 64 6d bd 92 1a 9e 39
       -0.022199573 -0.01792203 -0.057957515 0.00030155905
000370 80 b8 25 bd 1e 4f 29 bc fa fc 1f bd 5a 26 9e bc
       -0.040459156 -0.010333804 -0.039059617 -0.019305397
000380 cb ef d8 bc b9 e5 ec bc 90 4f 01 bc 5f 8f f7 bc
       -0.02648153 -0.028918134 -0.007892504 -0.030219732
000390 13 8b 05 bd af ec c7 bc 03 ea 2f 3d 36 a1 17 3d
       -0.032603335 -0.024404852 0.04294778 0.037018977
0003a0 84 7f 87 bb 36 c9 65 bc e5 44 30 3d 80 9d af 3d
       -0.004135074 -0.014025023 0.043034453 0.085749626
0003b0 52 41 c1 3c 32 dc 29 3c 4e af d4 3c ac 73 ad 3c
       0.023590717 0.01036744 0.025962498 0.02117332
0003c0 37 fe d9 3c c8 ce b2 3b be e9 51 3d b5 18 1e 3d
       0.026610477 0.005456779 0.051248305 0.03859778
0003d0 a6 e2 29 3c 8e 5f 78 3c 56 4c fe 3c ee 73 16 3d
       0.010368979 0.015159501 0.03104226 0.036731653
0003e0 3e 03 40 3d d1 c2 ff 3b c3 99 26 3d 58 f0 4c 3b
       0.046878092 0.0078052063 0.040673982 0.0031271186
0003f0 d2 d7 09 3c 23 27 d6 3b b8 89 1a 3d e4 e9 6d 3d
       0.008413272 0.006535427 0.037728995 0.058084384

net.0.bias f4 [128]
000000 64 ce d3 3d 51 8f 95 3d 91 02 4d 3d 06 9f ba 3d
       0.103421 0.07302726 0.050051276 0.091123626
000010 12 18 95 3d 49 2f 94 3d 7d 9e 89 3d 67 ce bd 3d
       0.07279982 0.072355814 0.06719682 0.09267884
000020 20 3d d0 3d fe 2f 8a 3d 5d bb 91 3d 52 a9 b5 3d
       0.10167909 0.06747435 0.07115815 0.08870186
000030 48 43 b2 3d 28 52 bd 3d 18 49 91 3d 8c 4e 8b 3d
       0.08704239 0.09244186 0.0709402 0.06802091
000040 2c 46 c6 3d 51 92 c8 3d 69 d5 31 bd 80 ca 9b 3d
       0.09681353 0.09793533 -0.043416414 0.07606983
000050 6a e9 9c 3d ab 54 64 3d 15 87 c3 3d 42 14 80 3d
       0.07661708 0.05574481 0.09547249 0.06253864
000060 af 8b 0c 3e 05 fe cc 3d 77 07 8f 3d 39 7e 95 3d
       0.1372516 0.10009388 0.06983846 0.07299466
000070 ef c2 96 3d b4 74 2c bc 25 07 b4 3d fb e5 a3 3d
       0.073613994 -0.010525871 0.08790425 0.0800285
000080 78 67 81 3d d8 f8 89 3d 38 32 e8 3d e2 b9 a1 3d
       0.06318563 0.06736916 0.113377035 0.078967825
000090 7f 9c ac 3d 01 34 87 3d 76 73 96 3d 90 7a a5 3d
       0.08428287 0.06601716 0.07346241 0.080800176
0000a0 d9 3d e5 3d dc 0d bf 3d 8a dc b3 3d 5c a5 6f 3d
       0.11193437 0.09328815 0.08782299 0.05850731
0000b0 06 56 bf 3d a0 f2 a0 3d 41 31 ba 3d e8 d4 b9 3d
       0.093425795 0.07858777 0.09091426 0.09073812
0000c0 8c a0 86 3d b3 28 d7 3d 8c b5 5b 3d d8 c2 7e 3d
       0.06573591 0.1050581 0.053639933 0.062197536
0000d0 40 11 ca 3d 17 2d 8d 3d fc 0b d4 3d 5a d0 ac 3d
       0.098665714 0.06893366 0.10353848 0.084381774
0000e0 fa f3 79 3d 3a b4 e7 3c 8f bf aa 3d 7b 4a 99 3d
       0.06102369 0.02828418 0.08337318 0.07484909
0000f0 fa ac b5 3d f4 f5 af 3d 80 98 8f 3d 1e 2d aa 3d
       0.08870883 0.08591834 0.07011509 0.08309387
000100 21 bb 59 3d 08 5a b0 3d af 1d d6 3d bd 6f ce 3d
       0.053156976 0.08610922 0.104548804 0.10079906
000110 33 08 ea 3d 3b e8 00 bd 70 c1 ef bc f7 79 b4 3d
       0.11427345 -0.031471472 -0.029267043 0.088123254
000120 75 f2 bf 3d 9f 43 ca 3d 3b 4d ab 3d 8b 3d c0 3d
       0.09372417 0.09876179 0.0836434 0.093867384
000130 50 15 8e 3d 42 cb b6 3d 62 b7 b8 3d 3d e4 b0 3d
       0.06937659 0.08925487 0.090193525 0.08637283
000140 b4 e3 8d 3d 91 90 13 bd 95 ca 89 3d b5 ea 77 3d
       0.069281965 -0.03602654 0.067280926 0.06052657
000150 94 f0 b5 3d ec 05 98 3d e7 cb 05 3e c9 4b a6 3d
       0.08883777 0.074230045 0.13066064 0.081199236
000160 ef 8d ba 3d 9a 65 98 3d c3 79 bc 3d 51 4e 64 3d
       0.09109103 0.07441254 0.09202912 0.05573875
000170 93 e0 bf 3d 0d ba 90 3d 6f 69 be 3d 7f 6a a0 3d
       0.09369006 0.07066736 0.092974536 0.078328125
000180 b4 23 0a bd 18 09 ab 3d 9b c6 c1 3d 03 0f a5 bb
       -0.033725455 0.08351344 0.09461709 -0.00503719
000190 6b bc c9 3d ff 0b 9d 3d a5 08 7e 3d 82 3c d4 3d
       0.09850391 0.07668304 0.062019963 0.103631034
0001a0 73 ea b1 3d a0 31 9a 3d fd bf a8 3d a6 3f fd 3d
       0.08687296 0.075289965 0.08239744 0.123656556
0001b0 d0 b9 8b 3d fb 54 7b 3d 10 fd a1 3d e0 da a8 3d
       0.0682255 0.06136034 0.07909596 0.08244872
0001c0 67 9d c9 3d fb d1 85 3c 29 9e c8 3d 1b a2 3d 3d
       0.09844475 0.016335478 0.09795792 0.046297174
0001d0 20 e5 9f 3d d9 41 42 3d 3a 9d ec 3d 0a c5 9b 3d
       0.07807374 0.04742608 0.11553426 0.076059416
0001e0 c1 ed ab 3d e8 a7 b9 3d 26 4b a5 3d fd 6d c0 3d
       0.08394957 0.09065229 0.08070974 0.093959786
0001f0 28 4c b1 3d 21 cd f8 3d d2 9e 83 3d dd 17 cf 3d
       0.08657104 0.121485 0.06426777 0.101119734

net.3.weight f4 [64, 128]
000000 c4 e1 cb 3d e7 87 ae bd bf 07 82 3d 11 01 16 3e
       0.09955171 -0.08522015 0.06349134 0.14648844
000010 7a 81 0d be 9e f0 1e bd cf a1 24 3d a3 21 3e 3e
       -0.13818923 -0.03880369 0.040193375 0.18567519
000020 d6 b8 03 3e 71 47 a2 bc 1e f4 8e 3d 21 2f 8a 3d
       0.12863478 -0.019809457 0.069801554 0.067472704
000030 b1 2b f4 3d 97 2c 66 3c 84 54 14 bb d3 54 0b 3e
       0.11922396 0.014048717 -0.0022633383 0.13606577
000040 52 9b 9f 3d a7 0e 11 3e 40 03 8d bc 8f f7 95 bd
       0.07793297 0.14165746 -0.017213464 -0.07322609
000050 16 d6 a8 bd 32 d1 0b be 0e 00 45 3e 03 5e ad 3d
       -0.08243959 -0.1365402 0.19238302 0.08465197
000060 ca 3a 41 3c 20 6a 16 bd a5 ac 13 be 8e 1a a3 bd
       0.011793802 -0.036722302 -0.14421327 -0.07964049
000070 51 36 d5 3d 74 85 b6 bd 46 e8 48 3e 8d 48 40 3e
       0.10410751 -0.08912173 0.19619855 0.18777676
000080 6a 66 19 bc 9d fe 7e bc 55 4c b7 3d 58 e9 0d be
       -0.009362796 -0.015563634 0.08950106 -0.13858545
000090 58 65 0e 3e 4a 84 37 bd af a9 66 bc 9a 4f a4 bd
       0.13905847 -0.044803895 -0.014078542 -0.08022995
0000a0 d1 fd 06 3d 5b d1 21 3e 70 ee 36 3e d8 f2 be 3b
       0.032956902 0.15802519 0.17864394 0.005827289
0000b0 40 2b 09 3e 76 41 97 3d 9a c6 93 3d b7 2c 1b 3e
       0.13395405 0.073855326 0.072156146 0.15153776
0000c0 c6 3b ee bd 29 13 be bb 54 ec bf bd 0a 53 de bd
       -0.11632495 -0.005800624 -0.09371248 -0.10855682
0000d0 fb 80 a8 3d f9 e8 10 3d 5e 6d 46 3e 91 a4 f5 3d
       0.08227726 0.03537843 0.19377658 0.11994279
0000e0 dc 3a 80 3c 5f 04 00 3d 91 8d d2 3b c5 00 27 bd
       0.015653066 0.03125417 0.0064255674 -0.04077222
0000f0 08 11 3d 3e 39 1d e6 3d f2 d4 e4 bc 78 20 a8 3d
       0.18463528 0.112360425 -0.027933571 0.08209318
000100 8a d1 ea 38 59 f2 02 bd c8 61 24 3e ac 3f 3b 3e
       0.00011197019 -0.031969402 0.16052926 0.18286008
000110 fd 44 1f 3e 67 e4 73 bd e8 5b af 3d b0 fd 3e 3d
       0.1555366 -0.059543993 0.085624516 0.046628654
000120 11 74 95 3d 12 25 09 3e b1 62 5e 3d 8b 64 e0 3c
       0.072975285 0.13393047 0.05429334 0.027391693
000130 39 08 81 bc 8b 92 08 bd a4 af 0e 3e 50 28 f9 bd
       -0.015750991 -0.03334288 0.13934189 -0.12165892
000140 d0 d7 0c be 93 77 8c 3d f5 44 34 3e 30 07 9e bd
       -0.13754201 0.068587445 0.1760443 -0.07716215
000150 1e f3 59 3c 16 05 37 3d ff ca b7 3d 5d 37 06 3e
       0.013302593 0.044682585 0.08974265 0.13107057
000160 95 d6 3a 3e ec c5 42 3e e9 3b e6 3d 6d e7 f1 bd
       0.18245919 0.19020814 0.11241896 -0.11811719
000170 54 a1 fc 3d ee 12 11 3e d1 e4 04 3e 1d 0e 35 3e
       0.123354584 0.14167377 0.12977912 0.17681165
000180 76 0b b5 3d f5 7b 88 3d b5 e0 23 3e ca 55 b0 3c
       0.088400766 0.06664268 0.16003688 0.021525282
000190 66 55 7f 3c 9c e5 cb 3c fd 1c 0c be 92 78 07 3e
       0.015584325 0.02488976 -0.13682933 0.13229588
0001a0 25 9c 15 3e ca 50 c4 3d a4 62 d8 bd 46 f5 6f 3d
       0.14610346 0.09585722 -0.10565689 0.05858352
0001b0 17 3b 12 be 6d 03 06 be 44 af ad 3d 1e 5b cb 3d
       -0.14280353 -0.13087244 0.08480695 0.099294886
0001c0 9b 2b 91 3d 20 22 f0 bd 55 da d6 3c 37 77 90 bd
       0.07088395 -0.11725259 0.026227156 -0.070539884
0001d0 db 6d bf bc 68 21 0a 3c 33 f9 3c 3e e0 5c 19 3d
       -0.023367813 0.008430816 0.18454437 0.037442088
0001e0 7a 20 92 3d c8 70 52 bd f8 78 14 3e 48 95 05 3e
       0.07135101 -0.051377088 0.14499271 0.13045228
0001f0 0a 1a 9e 3c 81 a0 2a 3e 8f 22 a6 bd d9 ab d5 bd
       0.019299526 0.1666279 -0.0811206 -0.10433168
000200 d7 fd bd bd f6 f9 2f 3e 7d 88 b4 3c 20 5e 99 bd
       -0.09276932 0.17185196 0.022037739 -0.07488656
000210 ee 2c 38 3e 9c aa a5 3d ca 3c e6 bd 61 21 8c bd
       0.1798589 0.08089182 -0.11242063 -0.06842304
000220 43 c6 b1 bb 8e 99 25 3e 05 92 dd bd bf a1 00 bd
       -0.005425246 0.16171858 -0.10818867 -0.031404253
000230 53 a9 31 bd e0 21 39 3e a7 e5 2f 3e 99 81 e0 bc
       -0.04337437 0.18079329 0.17177449 -0.027405547
000240 c9 01 f9 3d c6 e5 e6 bd 69 57 b1 bb 36 b6 2d 3e
       0.121585436 -0.112742946 -0.0054120314 0.16964039
000250 bd cd 23 3d 79 a3 da 3d ea 68 88 bd ea b6 89 3d
       0.03999113 0.10675711 -0.06660636 0.06724341
000260 93 1b 22 3e e6 dc 2f 3e 43 a7 88 3d 53 bf 11 3e
       0.15830831 0.1717411 0.06672528 0.1423314
000270 5a 86 e2 3c ff 45 5c bd 83 da ec bd 86 76 b7 bd
       0.027651954 -0.05377769 -0.11565115 -0.089581534
000280 94 ef 33 3e 54 4a 09 3e 6e 0a 58 3d ee 5b ea 3d
       0.1757186 0.1340726 0.05274432 0.114433154
000290 c9 db 29 3e cb d2 30 3e af aa 1a 3e 9a 44 13 3e
       0.16587748 0.17267911 0.15104173 0.14381638
0002a0 40 bb 16 3e 4b 60 a3 bc 4d 01 ef bd 95 21 00 3e
       0.14719868 -0.019943377 -0.1167017 0.1251281
0002b0 f9 ee 7b 3d cc 3e 27 bd ae 2b 87 bd 27 c3 af bd
       0.0615072 -0.040831372 -0.06600128 -0.08582144
0002c0 a7 8e 01 3e 5b 75 13 3e 23 12 9f 3c 4a 51 b4 3d
       0.12652074 0.14400236 0.019417828 0.08804567
0002d0 1e 24 5c bd 45 43 73 3d 4e 8d ba bd e8 ee af bd
       -0.05374538 0.059390325 -0.09108983 -0.085904896
0002e0 82 f4 0d 3e b3 ee b1 bc b1 14 15 3e e7 c0 07 3e
       0.13862804 -0.021720266 0.14558674 0.1325718
0002f0 97 c1 e8 bd c3 96 9c bb c1 93 d6 3d ea 83 f3 bc
       -0.11365049 -0.0047787144 0.104774006 -0.029725987
000300 c8 e2 fd 3c bc 19 fd 3d c9 3b bf bd bc 37 e8 bd
       0.030991927 0.12358424 -0.09337575 -0.113387555
000310 a0 4b 1d 3d 48 c7 87 bd ad 0c 96 3d 86 46 e8 bc
       0.0384022 -0.06629807 0.073266365 -0.02835394
000320 c5 fa 8e bd 31 54 63 bd ff cd 87 bd 57 a8 a7 bd
       -0.06981424 -0.055500213 -0.066310875 -0.08186405
000330 52 42 7c 3d 29 da 09 3e 05 7b 5f bd e1 0a 09 3e
       0.061586685 0.13462128 -0.05456068 0.13383056
000340 d3 a9 fe 3d df 58 9a bd 93 f0 9b bd da 75 e7 3d
       0.12434735 -0.07536482 -0.07614245 0.11301775
000350 fa 0c 95 3d 77 d8 c6 bd 27 82 af 3c 8b b8 f5 3d
       0.07277866 -0.09709256 0.021424366 0.119980894
000360 e4 f7 f5 bc e5 fb 21 bd d2 9d da bd 34 ce b5 3c
       -0.03002543 -0.039546866 -0.10674633 0.022193052
000370 23 5a 36 3c 68 58 ea bd 54 ae d7 bd da 67 86 bd
       0.011129889 -0.114426434 -0.10531297 -0.06562777
000380 65 af fd bc 7b cf dd bd c6 fc 15 bd 0c 37 30 bd
       -0.030967424 -0.108305894 -0.036618017 -0.043021247
000390 e9 04 84 bd 7d 9e ca bd 04 76 25 3e a3 89 48 bd
       -0.06446249 -0.098935105 0.161583 -0.048959386
0003a0 e1 06 86 bc 7e 6d cc bd 68 07 e2 3d c9 e2 1b 3e
       -0.016360702 -0.099818215 0.11036569 0.1522323
0003b0 79 8a b6 3d f9 58 9b 3d a7 8b 18 3d 09 c2 7a bd
       0.0891313 0.075853296 0.037242558 -0.061220203
0003c0 38 da 94 bd 4d f1 88 bc 79 57 89 bd bc 01 cb 3d
       -0.072681844 -0.016716624 -0.06706137 0.0991244
0003d0 44 c6 61 3d 61 0a 0a 3d ca 51 b9 3d 65 62 52 bd
       0.05512072 0.033701304 0.09048803 -0.051363368
0003e0 b0 ee d4 bc cf 58 33 3e b7 58 93 3d 27 c0 8d bd
       -0.025992721 0.17514347 0.071946554 -0.06921416
0003f0 b1 5a 13 3e a6 f7 6b 3d c7 50 1b 3e 17 0a 0a 3e
       0.14390065 0.057609223 0.15167533 0.13480411

net.3.bias f4 [64]
000000 80 a7 1e 3e 9c e9 bc 3d db 5c 0a 3d 0e e7 97 bd
       0.15493584 0.09224245 0.03377996 -0.07417117
000010 9b 91 89 bc a1 4a a5 3d c5 84 38 bd b4 af a7 3c
       -0.016793063 0.08070875 -0.045048494 0.020469524
000020 6a eb 06 3e e6 ec ab bd 4d f4 83 3d 12 ec ae 3d
       0.13175741 -0.08394794 0.06443081 0.085411206
000030 f9 7f 57 bd 4b 25 b7 3b 60 df d9 3c e7 8d 00 3e
       -0.05261228 0.0055891625 0.026595771 0.12554131
000040 7b d9 d7 bc 4b 9f 0c 3e af aa b9 3d bb 51 bb 3d
       -0.02634882 0.1373264 0.090657584 0.09146448
000050 77 f1 28 3d f6 ed 58 bd 5e e5 03 bc 11 57 b8 3d
       0.041245904 -0.052961312 -0.008050291 0.090009816
000060 5d 7b d0 3d 6d 1c 80 bc c6 be ac bd 63 50 80 3c
       0.1017978 -0.015638554 -0.08434825 0.015663331
000070 e0 b0 e9 3d b9 ed be 3d 0d 7b e8 3d 5b 31 34 bd
       0.11410689 0.09322686 0.11351595 -0.04399238
000080 5f b3 84 3d e0 b8 b0 3d 26 c1 7f 3c 10 88 21 bb
       0.06479525 0.08629012 0.015610015 -0.002464775
000090 02 49 d3 3d 3b e2 fe 3d 3c 3c 09 3e 8f 69 45 3d
       0.103166595 0.12445494 0.13401884 0.04819637
0000a0 cd 78 22 bd 80 f0 b1 3d 7e 89 f6 3d cb 96 b8 3d
       -0.039665986 0.0868845 0.12037943 0.090131365
0000b0 f1 e5 87 3c 75 70 d4 3d c8 bb 19 3e 1a ec b7 bc
       0.016589137 0.10373012 0.15013039 -0.02245145
0000c0 83 ba f8 3d d6 27 5f 3d ed 86 df bb d1 30 24 bd
       0.12144949 0.05448135 -0.0068215043 -0.040085617
0000d0 2d c0 e0 3d c0 04 b8 3d 16 f5 e0 3d 7b 76 b4 3d
       0.109741546 0.08985281 0.109842464 0.08811661
0000e0 6f 08 08 3e 16 38 22 3e da 3a f3 3d f1 0a c7 3d
       0.13284467 0.15841708 0.118764594 0.09718884
0000f0 d6 e0 d8 bc 59 a2 de 3d ad 9a 94 bd 43 f6 a9 3d
       -0.026474398 0.10870809 -0.072560646 0.08298924

net.6.weight f4 [1, 64]
000000 c1 4c 2e be 3e d0 6e 3e dd 01 41 3e 31 80 cc bd
       -0.17021467 0.23321626 0.18848367 -0.09985388
000010 bc 28 1e 3e cd 09 0c be 11 93 a4 3d 8a 87 23 3e
       0.15445226 -0.13675614 0.08035863 0.15969673
000020 b5 ae 15 be 46 9f c8 bd 78 57 49 be 6e 75 71 be
       -0.14617427 -0.09796004 -0.19662273 -0.23579952
000030 c9 c7 99 bd 3d e4 3d 3e d3 70 0e 3e f8 99 17 be
       -0.07508809 0.18544097 0.13910227 -0.14804828
000040 bb 4c 94 3d 88 3c 5e 3e ed 43 0a be a4 9a 42 3e
       0.07241198 0.21702778 -0.13502474 0.19004303
000050 a5 d0 4f 3e 29 f3 92 3d f0 a1 1d 3e 83 41 37 be
       0.20294435 0.07175285 0.15393806 -0.17896084
000060 da 8d 17 3e 83 6f 27 be e0 74 16 bd 14 f0 24 3e
       0.14800206 -0.16351132 -0.036732554 0.16107208
000070 2a 0a 00 3e 11 e2 2a be f6 f4 3b be aa b4 1c bc
       0.12503877 -0.166878 -0.18355164 -0.009564558
000080 9d 88 4a be 21 cc 17 3e 8c 9e 15 3e d8 8d 10 be
       -0.19778676 0.14823963 0.14611262 -0.14116609
000090 34 83 26 3e 37 5f 05 3e dd 8f 63 be ee 9b 3a be
       0.16260988 0.13024603 -0.22222848 -0.18223545
0000a0 84 16 35 bd e1 41 2e 3e f7 ef 51 3e 0f 77 68 3e
       -0.044210926 0.17017318 0.20501696 0.22701667
0000b0 dd c8 21 3e 4e 72 00 be 3f 61 53 be 85 a0 45 3e
       0.1579928 -0.12543604 -0.20642565 0.19299515
0000c0 8f 54 eb bd 60 9a 05 3e 14 ad 09 3e 7f 0a fa 3d
       -0.11490738 0.1304717 0.1344493 0.12209033
0000d0 2a 1f 6f be 16 8e 31 3e e7 42 f5 3d b6 7d 63 3e
       -0.23351732 0.17339358 0.11975651 0.22215924
0000e0 b2 c0 c1 3d 9a 53 fb bd fc 53 2d be ac ae 4d 3e
       0.09460582 -0.12271805 -0.16926569 0.20086163
0000f0 0d 04 27 bd fe 65 0b 3e 79 fe 34 bd ad 80 0a be
       -0.040775348 0.13613126 -0.044187997 -0.13525648
